…
Free memory: 3.50GiB
I tensorflow/core/common_runtime/gpu/gpu_init.cc:126] DMA: 0
I tensorflow/core/common_runtime/gpu/gpu_init.cc:136] 0:   Y
I tensorflow/core/common_runtime/gpu/gpu_device.cc:839] Creating TensorFlow device (/gpu:0) -> (device: 0, name: GeForce GTX 980, pci bus id: 0000:07:00.0)
____________________________________________________________________________________________________
Layer (type)                       Output Shape        Param #     Connected to
====================================================================================================
dropout_1 (Dropout)                (None, 784)         0           dropout_input_1[0][0]
____________________________________________________________________________________________________
dense_1 (Dense)                    (None, 800)         628000      dropout_1[0][0]
____________________________________________________________________________________________________
activation_1 (Activation)          (None, 800)         0           dense_1[0][0]
____________________________________________________________________________________________________
dropout_2 (Dropout)                (None, 800)         0           activation_1[0][0]
____________________________________________________________________________________________________
dense_2 (Dense)                    (None, 800)         640800      dropout_2[0][0]
____________________________________________________________________________________________________
activation_2 (Activation)          (None, 800)         0           dense_2[0][0]
____________________________________________________________________________________________________
dropout_3 (Dropout)                (None, 800)         0           activation_2[0][0]
____________________________________________________________________________________________________
dense_3 (Dense)                    (None, 10)          8010        dropout_3[0][0]
____________________________________________________________________________________________________
activation_3 (Activation)          (None, 10)          0           dense_3[0][0]
====================================================================================================
Total params: 1276810
____________________________________________________________________________________________________
Train on 50000 samples, validate on 10000 samples
Epoch 1/200
50000/50000 [==============================] - 1s - loss: 0.5229 - acc: 0.8385 - val_loss: 0.1678 - val_acc: 0.9521
…
